data.pth (torch, 7772 bytes, 8 tensors)

layer1.weight f4 [8, 88]
0.5801947 0.5991808 0.13823386 -0.27039847 -0.00679792 -0.08699137 0.42536804 0.14373569
0.2735623 0.22077487 -0.09376544 0.3094971 0.06651649 -0.2570996 -0.52090967 0.30471817
0.28837344 -0.29127142 0.15077546 -0.13016263 0.0902058 0.021775784 0.13163565 0.3808693
0.16028811 0.61924905 0.10423295 0.031176591 0.66562337 0.28508374 0.32571366 0.5061211
0.49834165 -0.89138776 0.4226903 0.070646524 0.24261221 0.35487244 -0.21917394 -0.21283947
0.038988132 -0.3269109 0.12773219 0.42781743 -0.10037518 0.013748704 0.31215206 -0.0050651208
0.08771088 0.2506865 -0.6330012 -0.2637641 -0.28302827 0.19725008 0.14961936 0.6310931
0.02842544 0.015419835 0.27887994 -0.005371312 -0.54090476 -0.19598725 0.02284662 -0.277931
-0.29293525 0.3774415 -0.2112674 0.2456207 -0.15449527 -0.018976975 -0.15550892 -0.020845763
0.68082136 0.41552815 0.08977394 0.41053525 -0.054923885 0.12762192 0.08175981 0.022986257
-0.34751946 0.0014829339 -0.11344868 -0.32883024 -0.2445088 0.13760695 -0.1418953 0.4260304
0.35147798 0.29381296 0.14191623 0.038099676 0.23835194 0.046263352 -0.27791828 -0.15302724
-0.36426678 -0.1132919 -0.20956081 -0.23053807 0.5894126 0.1511714 0.36263734 -0.2131911
-0.032755364 0.28405362 -0.25041726 -0.08993944 0.21327959 0.06647886 -0.16579528 0.06334729
-0.14018771 -0.26023042 0.51818496 -0.0821778 -0.51063085 0.23784927 -0.1027664 -0.5106657
-0.51062304 -0.38169768 -0.46508986 0.23453034 0.061218772 -0.0039275526 -0.030971024 0.28669208
0.40308002 -0.07238885 0.032188088 0.23959576 0.047419395 -0.09951312 0.34740853 -0.108721584
-0.011876089 -0.2876484 0.7177606 0.5091495 -0.12812564 -0.11350035 0.3291806 0.37945583
0.2088288 0.17195956 -0.354267 0.25765818 0.509099 -0.068241954 0.49906588 0.3589305
0.4146142 0.055564232 -0.030207181 -0.11750186 -0.032588106 -0.09137488 0.7658887 0.189857
0.3671898 0.29074758 0.5443031 -0.28647986 0.36373985 0.09922911 -0.041083746 -0.08305998
-0.2448925 0.23976634 -0.10204821 -0.10835415 0.53074926 -0.075795345 -0.06364341 0.10749226
-0.12803039 -0.014236392 0.14366965 0.25070402 -0.17198549 0.3035972 -0.23566595 0.36053482
0.22654864 0.12832351 0.27457917 0.13351965 -0.2374548 0.27101478 0.48597246 0.025441358
0.38689995 0.35926953 0.26570737 0.17804617 0.43447763 0.3568256 0.196935 -0.06669083
0.3151521 -0.3281244 -0.3421736 0.16771431 0.003272122 -0.16186383 0.23145239 0.06061024
-0.029061634 0.7592134 -0.051044706 0.20242679 0.30515823 0.027881173 0.27814206 0.32834432
-0.10650174 0.34517077 0.32586223 -0.10523896 0.4042402 0.25656864 0.27816328 0.30099523
0.2968813 0.3302093 0.74937737 0.41871426 0.24066061 0.07703626 -0.05075096 -0.40041748
0.13193259 -0.14382875 0.5526254 0.01518939 0.5789817 0.2868405 -0.13785376 0.25979412
0.29948822 -0.11575196 0.3258955 0.14732443 0.3541685 0.5047473 -0.06330437 0.34368238
-0.40045497 -0.11050348 0.022649748 0.035619643 0.25825676 0.30251917 0.24416333 0.19221893
00000000: a487 143f ea63 193f 2d8d 0d3e ab71 8abe
00000010: 16c1 debb 8828 b2bd d7c9 d93e 732f 133e
00000020: 5c10 8c3e cf12 623e 1808 c0bd 6776 9e3e
00000030: cc39 883d 8fa2 83be 565a 05bf 0504 9c3e
00000040: afa5 933e 8721 95be e264 1a3e 5a49 05be
00000050: d2bd b83d 2163 b23c 7fcb 063e 4d01 c33e
00000060: 9122 243e 1b87 1e3f 1678 d53d 0d66 ff3c
00000070: 4b66 2a3f 7ff6 913e f1c3 a63e 2791 013f
00000080: a326 ff3e fd31 64bf dd6a d83e 20af 903d
00000090: 566f 783e d7b1 b53e 226f 60be 97f2 59be
000000a0: 05b2 1f3d de60 a7be 3acc 023e e30a db3e
000000b0: 8191 cdbd 3f42 613c 65d2 9f3e 50f9 a5bb
000000c0: c3a1 b33d fb59 803e 5e0c 22bf 170c 87be
000000d0: 15e9 90be edfb 493e d135 193e 518f 213f
000000e0: 78dc e83c 7aa3 7c3c 5ac9 8e3e d501 b0bb
000000f0: bc78 0abf e2b0 48be d628 bb3c f94c 8ebe
00000100: 9cfb 95be 0340 c13e 7b56 58be fe83 7b3e
00000110: 0234 1ebe 9a75 9bbc bb3d 1fbe bcc4 aabc
00000120: 4f4a 2e3f 1bc0 d43e 66db b73d ad31 d23e
00000130: def7 60bd 52af 023e b071 a73d ad4d bc3c
00000140: 12ee b1be 015f c23a c857 e8bd 705c a8be
00000150: 8460 7abe d6e8 0c3e 004d 11be a820 da3e
00000160: ecf4 b33e a76e 963e 7d52 113e 680e 1c3d
00000170: 8812 743e a47e 3d3d 4e4b 8ebe 2cb3 1cbe
00000180: 2d81 babe 9505 e8bd 1c97 56be 2c12 6cbe
00000190: bfe3 163f adcc 1a3e 9aab b93e c54e 5abe
000001a0: 7d2a 06bd 7a6f 913e b136 80be 2b32 b8bd
000001b0: f765 5a3e 1226 883d 3dc6 29be 39bc 813d
000001c0: 5e8d 0fbe ec3c 85be c5a7 043f d64c a8bd
000001d0: b4b8 02bf c28e 733e 3177 d2bd fdba 02bf
000001e0: 31b8 02bf e16d c3be 4220 eebe b928 703e
000001f0: 89c0 7a3d b3b2 80bb f2b6 fdbc 4ec9 923e
00000200: 8160 ce3e 9b40 94bd a8d7 033d 9758 753e
00000210: d73a 423d 89cd cbbd 88df b13e 6ca9 debd
00000220: ed93 42bc a746 93be 29bf 373f 9f57 023f
00000230: 5e33 03be df72 e8bd 5c8a a83e 0948 c23e
00000240: 38d7 553e 2b16 303e 7c62 b5be c6eb 833e
00000250: 5054 023f 70c2 8bbd 9085 ff3e bdc5 b73e
00000260: 5048 d43e 5297 633d 0d75 f7bc d1a4 f0bd
00000270: 1b7b 05bd c122 bbbd 4811 443f e069 423e
00000280: 4d00 bc3e dedc 943e 7357 0b3f 7dad 92be
00000290: 1c3c ba3e a238 cb3d 6e47 28bd 5a1b aabd
000002a0: 19c5 7abe 4f85 753e a7fe d0bd c8e8 ddbd
000002b0: 2fdf 073f 973a 9bbd 7a57 82bd e724 dc3d
000002c0: 661a 03be c23f 69bc 231e 133e 475c 803e
000002d0: f71c 30be 1871 9b3e 6a52 71be 0598 b83e
000002e0: 5efc 673e 3d67 033e a495 8c3e 60b9 083e
000002f0: 5a27 73be 73c2 8a3e 62d1 f83e 656a d03c
00000300: c017 c63e 2df2 b73e cc0a 883e bc51 363e
00000310: da73 de3e d8b1 b63e 54a9 493e 3495 88bd
00000320: 9e5b a13e ecff a7be 6131 afbe 4dbd 2b3e
00000330: 1971 563b a2bf 25be db01 6d3e 7142 783d
00000340: aa12 eebc cf5b 423f 4114 51bd f848 4f3e
00000350: b33d 9c3e 0f67 e43c a368 8e3e bf1c a83e
00000360: 961d dabd 39ba b03e 6ad7 a63e 8687 d7bd
00000370: 92f8 ce3e f75c 833e 6b6b 8e3e 0c1c 9a3e
00000380: d300 983e 3211 a93e 32d7 3f3f b761 d63e
00000390: bc6f 763e 30c5 9d3d 3de0 4fbd 8503 cdbe
000003a0: 5619 073e d847 13be dc78 0d3f ebdc 783c
000003b0: 2538 143f c2dc 923e 8929 0dbe bc03 853e
000003c0: 8556 993e 5d0f edbd c6db a63e 37dc 163e
000003d0: 9355 b53e 1e37 013f b9a5 81bd 23f7 af3e
000003e0: 6f08 cdbe a64f e2bd f78b b93c e7e5 113d
000003f0: 3b3a 843e cbe3 9a3e f405 7a3e 0ad5 443e

layer1.bias f4 [8]
0.9257308 0.510673 0.40031704 0.8107537 0.62555563 0.8649518 0.88520044 0.43248808
00000000: b2fc 6c3f 77bb 023f 5bf6 cc3e 8e8d 4f3f
00000010: 6a24 203f 7b6d 5d3f 7f9c 623f 146f dd3e

layer2.weight f4 [8, 8]
1.3054991 0.15648837 -0.36383525 1.1370771 -0.09336199 -0.100812346 0.850109 -0.4512711
0.37951908 1.5022686 0.5400151 0.8284941 0.7681969 1.1007801 0.1496137 1.2777236
1.5863099 -0.39710903 -0.34089077 0.67517096 0.122166604 0.39612886 1.436594 -0.72083944
0.2302244 -0.8409927 0.8108027 -0.9194915 0.9254821 0.6863053 1.1436887 -0.06943999
0.018875802 -0.15111373 0.1769898 0.11396725 -0.31258062 -0.07348764 0.16844922 0.0055404976
-0.03570928 -0.85030884 0.70659393 -0.5286693 0.69134027 0.5150585 0.95579356 0.11054534
-1.0449823 0.9425788 1.0974339 0.29719877 1.1886204 0.90837115 -0.6519261 1.0182158
0.59777135 0.6759996 -0.4079462 1.0905992 -0.08409539 0.3878041 0.5766841 0.97065336
00000000: 981a a73f 7d3e 203e 9d48 babe be8b 913f
00000010: 9234 bfbd b476 cebd bea0 593f 010d e7be
00000020: 5350 c23e 564a c03f 6e3e 0a3f 3018 543f
00000030: 8da8 443f 5de6 8c3f 5534 193e 728c a33f
00000040: 340c cb3f e051 cbbe 3c89 aebe 01d8 2c3f
00000050: 7c32 fa3d 67d1 ca3e 50e2 b73f ef88 38bf
00000060: f2bf 6b3e 4c4b 57bf c490 4f3f cc63 6bbf
00000070: 65ec 6c3f b4b1 2f3f 6464 923f 8e36 8ebd
00000080: 6da1 9a3c 8fbd 1abe d03c 353e a967 e93d
00000090: 910a a0be b080 96bd f47d 2c3e 108d b53b
000000a0: e543 12bd d7ad 59bf 57e3 343f df56 07bf
000000b0: adfb 303f e0da 033f e3ae 743f 9865 e23d
000000c0: fbc1 85bf d84c 713f b778 8c3f 702a 983e
000000d0: b724 983f 038b 683f a1e4 26bf e554 823f
000000e0: 8b07 193f 4f0e 2d3f 53de d0be c198 8b3f
000000f0: 343a acbd 428e c63e 92a1 133f bd7c 783f

layer2.bias f4 [8]
0.8031144 0.7292348 0.8194678 0.06457432 -0.3659509 0.047947265 0.32325533 0.32625118
00000000: e898 4d3f 22af 3a3f a4c8 513f 8b3f 843d
00000010: eb5d bbbe 5a64 443d b981 a53e 650a a73e

layer3.weight f4 [8, 8]
-0.6584428 0.63294065 -0.6443202 0.36716002 -0.053602666 0.6880726 0.6290228 0.44569272
0.43425757 -0.14202556 0.91263926 1.1140698 0.1898479 1.2587044 -0.36788538 -0.34958404
-0.83906835 0.2955554 -0.64456576 0.0767541 0.3381323 0.457821 0.76057136 0.14631441
-0.13468422 0.5759794 -0.8388325 -0.93446356 0.09995228 -0.9249799 0.67899334 0.65629333
0.84077287 0.77590764 1.1321297 -0.45434043 -0.01868806 -0.68016905 -0.704671 1.291925
-0.006298668 0.2678911 -0.098746195 -0.044549506 -0.25922745 -0.3085398 0.4640328 0.05382456
-0.94366896 0.36880538 -0.54768014 0.6221683 0.071128614 0.54698205 0.5586771 -0.26756173
-0.47900677 0.4994576 -0.23684993 1.1652653 0.07854858 1.0116193 1.0000958 0.23452331
00000000: b58f 28bf 6608 223f 2bf2 24bf 66fc bb3e
00000010: 788e 5bbd 8725 303f a307 213f d631 e43e
00000020: 0257 de3e 266f 11be baa2 693f d799 8e3f
00000030: 7d67 423e 3a1d a13f 795b bcbe aefc b2be
00000040: 2fcd 56bf 0a53 973e 4302 25bf 4131 9d3d
00000050: ad1f ad3e 8467 ea3e ceb4 423f 72d3 153e
00000060: a9ea 09be 6373 133f babd 56bf 0139 6fbf
00000070: c8b3 cc3d 7ccb 6cbf 82d2 2d3f d702 283f
00000080: e43c 573f e2a1 463f a0e9 903f 4f9f e8be
00000090: b417 99bc 8f1f 2ebf 5265 34bf cc5d a53f
000000a0: 0f65 cebb 0629 893e 723b cabd 8b79 36bd
000000b0: 76b9 84be eef8 9dbe b595 ed3e 2477 5c3d
000000c0: 4a94 71bf 0fd4 bc3e c434 0cbf 6c46 1f3f
000000d0: e1ab 913d 0407 0c3f 7605 0f3f dafd 88be
000000e0: 6040 f5be e8b8 ff3e ca88 72be 6a27 953f
000000f0: 14de a03d be7c 813f 2403 803f e126 703e

layer3.bias f4 [8]
0.04044102 0.50469553 -0.11421344 -0.022608357 0.45589167 0.4716994 0.2944133 0.16807757
00000000: 7ca5 253d ba33 013f bce8 e9bd 2935 b9bc
00000010: a26a e93e 9582 f13e 57bd 963e 871c 2c3e

layer4.weight f4 [8, 8]
-0.24042165 0.48777035 -0.2156419 -0.10781994 -0.5006124 0.27146968 -0.0052386965 0.2953285
-0.0092667295 -0.92592824 0.24244297 0.60321206 -0.17364947 -0.17431892 -0.2373316 0.23364785
0.03448183 -0.0033643665 -1.3557538 -0.9961815 0.23995738 0.03794794 -0.74966437 0.07045746
-0.61118686 -0.5798069 -0.69396883 0.42477995 0.5365734 0.53478813 -0.4930698 -0.29353437
-1.3633972 0.7645537 -0.83437955 -0.5118668 0.22743925 -1.004178 -0.4044268 -0.14459036
0.044230632 -0.022763668 0.33405426 -0.42119578 -1.3311565 -0.09995411 0.41700867 0.37535602
-0.008010315 -0.8722851 0.11335556 0.52386564 -1.3082167 0.4443742 0.20387934 0.4665263
-0.82627815 -0.06283473 -0.3959888 -0.7150186 0.8924278 -0.40470284 -0.34476528 -1.5674124
00000000: 1831 76be 09bd f93e 3bd1 5cbe b3d0 dcbd
00000010: 2228 00bf 13fe 8a3e 5fa9 abbb 4c35 973e
00000020: 7bd3 17bc a209 6dbf f842 783e 1b6c 1a3f
00000030: 2bd1 31be a980 32be 0e07 73be 6241 6f3e
00000040: d23c 0d3d b47c 5cbb 5789 adbf c005 7fbf
00000050: 63b7 753e 4d6f 1b3d 01ea 3fbf 004c 903d
00000060: be76 1cbf 3a6e 14bf f1a7 31bf c27c d93e
00000070: e05c 093f e0e7 083f a573 fcbe 234a 96be
00000080: cd83 aebf cbb9 433f e699 55bf b409 03bf
00000090: d6e5 683e e888 80bf 0811 cfbe 7f0f 14be
000000a0: 2e2b 353d df7a babc 2909 ab3e f9a6 d7be
000000b0: 5663 aabf beb4 ccbd 2982 d53e aa2e c03e
000000c0: b23d 03bc 144e 5fbf f626 e83d 0f1c 063f
000000d0: a573 a7bf 0485 e33e bfc5 503e 89dc ee3e
000000e0: f786 53bf 7faf 80bd 0bbf cabe 750b 37bf
000000f0: 2676 643f 3635 cfbe 1385 b0be f8a0 c8bf

layer4.bias f4 [8]
-0.23639259 0.22444743 -0.20383361 -0.005053331 0.40194303 -0.19496942 -0.17752446 0.114218414
00000000: e610 72be 8cd5 653e c2b9 50be 6a96 a5bb
00000010: 7acb cd3e 10a6 47be f9c8 35be 58eb e93d
